.dart_tool/chrome-device/Default/optimization_guide_prediction_model_downloads/d0f4af5f-3bbb-49a9-b6be-463a315c6073/model.tflite (tflite, 410364 bytes, 166 tensors)

context_transformer_0/bottleneck_input/norm/add f4 [32]
00000000: f0df dd3d f9c8 71bb 724b 2c3c 0afc 443c
00000010: 1b42 d13c 1a00 e73a a513 4bbd 2847 c6bd
00000020: c846 6b3e 16bb 3f3e c1e1 d43d 9d4b 4e3d
00000030: f953 89bd c401 53bd a204 bebd 274b 393e
00000040: 92b1 053c 85de f33b 8e8a 9cbe d0e7 f53c
00000050: d8c7 0c3e e9cf 29be e5b5 dabd bce8 a73d
00000060: 327e 263e 9585 30be c090 f7bd 1e60 173e
00000070: a8fe 2c3e 38c0 473d cfbf 92bc 8864 073d
0.10833728 -0.003689347 0.010516034 0.012022981 0.025544217 0.0017623932 -0.04957928 -0.09681541
0.2297622 0.18723711 0.10394622 0.05036508 -0.0670547 -0.051515356 -0.092782274 0.18095075
0.008160012 0.007442298 -0.3057446 0.030017763 0.1374811 -0.16583218 -0.10679225 0.081986874
0.16259077 -0.17238458 -0.12088156 0.1478276 0.16894019 0.0487673 -0.017913727 0.03305486

context_transformer_1/bottleneck_input/norm/add f4 [32]
00000000: d8d5 a3bd 3aaa d5bd 3a68 273e 9b88 423d
00000010: 1ce8 f3bd cbd2 2c3d a7c5 24be 486a ef3b
00000020: 9a2d 57bb d0df e6bd 48cc d2bd 0401 fabd
00000030: dc80 52be 8cb5 5b3d baba 5fbd fa4d a9be
00000040: 8094 2cbd d1fb 133c 1496 f5bd 2231 3bbe
00000050: a43e 2c3e 9c39 1cbe 1284 07be 94f4 b53d
00000060: ab8e 0e3e c484 f23c 89bf d7bd 885d 3dbe
00000070: 78eb 5e3d 266e dabc 8e87 973d 0092 5ebe
-0.07999772 -0.10432859 0.16348353 0.04749356 -0.11909506 0.042193215 -0.16091023 0.007306371
-0.0032833577 -0.112731576 -0.1029287 -0.12207225 -0.20556968 0.053639933 -0.054621436 -0.33067304
-0.042133808 0.009032206 -0.11991516 -0.18280461 0.1682077 -0.15256351 -0.13233975 0.0888454
0.13921611 0.029604323 -0.10534579 -0.1849271 0.05442378 -0.026663851 0.07398902 -0.21735382

mention_transformer_0/bottleneck_input/norm/add f4 [32]
00000000: 6c85 9abc fce6 b03d e45b 813c b7e4 623c
00000010: bbfb 003d 0886 e0bd f719 103d e8c4 c93c
00000020: a01d a7bd 384c 3d3e b83e d1be a0d6 8dbc
00000030: 2ece 143d c48e 12be bc95 98bd 2383 1e3e
00000040: be88 8f3d d004 393e e17e aabd e604 15be
00000050: 0603 923d 9e59 533e 3aa1 0fbe 923a 8bbd
00000060: 6b2b ebbd a160 55bd fe0d 4c3d b48a 803d
00000070: 4c23 c63d 9caa 6f3e 5709 203e a894 5d3e
-0.018862449 0.08637807 0.015790887 0.013848475 0.03149007 -0.109630644 0.035181012 0.024630025
-0.081599474 0.18486106 -0.40868163 -0.017314255 0.03632944 -0.14312273 -0.074504346 0.15479712
0.070085034 0.18068242 -0.083249815 -0.1455265 0.07129483 0.20639655 -0.14026347 -0.06798281
-0.11482891 -0.052094106 0.04981803 0.062764555 0.09674701 0.23404926 0.15628563 0.21638739

mention_transformer_1/bottleneck_input/norm/add f4 [32]
00000000: 9e16 3cbd 5043 6bbc 2859 c4bd 2c8f 7fbe
00000010: 9767 e4bd 72d3 003d 2b09 4dbd 2297 99be
00000020: 1edf a0bd 4b59 51bc e8bf 093d f784 223d
00000030: a2cf cdbe 1ac6 3c3d cf17 6e3e 70da 31bc
00000040: 9a04 cabd fb79 19be ccb1 a63b 00ef efba
00000050: fbee f1bd abb6 f8bd 3644 e83c c023 51bc
00000060: bca3 70bc f087 c13a ad29 103e 800b 15be
00000070: 2324 9c3d 4031 323b 9773 093e e9f3 883d
-0.045920007 -0.01435931 -0.09587318 -0.2495696 -0.11152571 0.03145165 -0.05005757 -0.29998118
-0.07855056 -0.012777637 0.03363028 0.039677586 -0.40197474 0.046087362 0.2325127 -0.010855302
-0.09864159 -0.14987938 0.005087113 -0.001830548 -0.1181316 -0.12144216 0.028352838 -0.012764871
-0.014687475 0.0014765244 0.14078398 -0.14555168 0.0762408 0.002719 0.13423 0.06687147

context_transformer_0/attention/value/add;context_transformer_0/attention/value/einsum/Einsum;context_transformer_0/attention/value/add/ReadVariableOp/resource f4 [32]
00000000: f1b4 f2bc 839e 29bd 9556 103c c36b dabc
00000010: e4ad f43c ee4b 8e3c 7136 11bd f867 10bd
00000020: bd72 7f3d 1431 2d3d bed4 243d 295f 7abd
00000030: c2b0 483d bda7 a13d 61b8 223d 44f2 41bd
00000040: d820 4dbd f220 823d 8cad 99bd d8e7 393d
00000050: 91bc 843d 4151 833d 4243 8cbd 780f 553d
00000060: e684 1a3d 12ed 493d 8be2 573d 7437 543d
00000070: f255 04bd 940d 6abd fc3b fcbc fd39 683d
-0.029627295 -0.041410934 0.008809705 -0.026662713 0.029868074 0.01737019 -0.03545231 -0.035255402
0.062365282 0.042283133 0.04024195 -0.061125908 0.048996694 0.07893322 0.03972662 -0.047350183
-0.05008015 0.0635394 -0.075038046 0.04538712 0.06481279 0.06411982 -0.06848766 0.052016705
0.037724398 0.049298353 0.052706283 0.051810697 -0.032308526 -0.057141855 -0.030790322 0.056695927

context_transformer_0/bottleneck_input/norm/mul f4 [32, 32]
00000000: 143f 25bd c76c 13bb 2425 bd3e cd8c 2bbe
00000010: abb3 943e 9710 613d 901d 4f3e 4675 b83d
00000020: 0b04 903e a48e acbd 04dc 1c3d 4509 d5bd
00000030: 6aa0 14be d75b 44be 2780 813e 50d8 f9bd
00000040: 92a3 8f3d 824e c0be 3a1e 8c3d 00bd 5abf
00000050: 0a98 033b 269e e93d 6628 b3be f6a7 773d
00000060: e2b9 8abe fe63 e63e 1d5b 8ebe b869 b43c
00000070: 10b8 cabb 523d 1e3e 9913 d63e ce0d 373e
00000080: 8658 df3e c81c 853e f468 12bd 378b 5d3e
00000090: 9027 b3ba e6d4 d23e 6460 e5be 113c a4be
000000a0: 8ce9 b2be 75bd 8cbd abd1 24bd ac97 583e
000000b0: 1df4 a9bd 934e 26be 9a1b 0abf a246 10bd
000000c0: a7c6 d4be c668 4ebd 6ae7 f0bd f110 9dbe
000000d0: 1906 143f 8654 81be 9575 1ebe 812f 953e
000000e0: 8764 d23e 834f 013e db1a 0a3f 0036 cfbd
000000f0: 6ccf d73e 5831 f6be 074c b23e 70e7 06bc
00000100: 62a8 cf3e 3b17 efbe 2cb8 9bbd cab1 7c3d
00000110: 89bd ea3b 84e9 38be 4f57 98bd 0488 1e3e
00000120: 7278 04bf 1793 18bf 4b7f 1e3e e6b0 403d
00000130: 5fba 033e 4bef 063d 73d5 56be e1ca 8a3e
00000140: 5154 4abe bef6 acbe 5008 ab3c d0f2 fcbc
00000150: 7176 7f3b 9e6d 67bd 8c08 073d af97 9f3d
00000160: fd97 753e 76ef 77be 37fc adbe 00f0 d7bd
00000170: dc67 2fbd 2e5c 393e e784 2fbe dadc 493e
00000180: 4dd1 573e 34c6 5ebe aa18 40bd 8ef5 3e3e
00000190: 42a1 5a3e b127 59be 9a98 9fbe 8e8f c83c
000001a0: 0393 803e d671 50be 6604 8f3e 8400 b43d
000001b0: 045f 723e f1cc 95bc cd00 15bf aa3a bc3e
000001c0: 2c4a 43be 8a0e afbd 92f8 9dbd 3288 f0be
000001d0: 1992 fcbd 42cf a53e b1cd 763e 58db 4a3e
000001e0: 0e92 a9bd 009b 603e 0a99 05be ca1c 633e
000001f0: c514 ca3e af0b acbe 14da 753e e434 f43c
00000200: cd97 a8bd 86e2 1abf b6ae cd3e e89c 3d3e
00000210: ad54 50be 36ac f4bd ee30 2e3e 21bf febc
00000220: 3e28 7cbe c17b 00be ad91 943d ab75 c73d
00000230: 63d5 50bd 4329 643e 6b4a 463f cc42 5cbe
00000240: 121e 483e b800 823e 60dc a03c b412 703f
00000250: 1ed0 e7be 694c 97bd 8f3e 37bd b690 8bbe
00000260: cef4 55be b116 b7bd 1094 0abe 7754 65bd
00000270: 9cd2 bc3d bef1 a23d e974 5ebe a071 323e
00000280: 2ef8 453e 541d d63e b1f9 04be 6da9 6bbd
00000290: 90aa cfbe 86fe d03d 58c4 bb3d 612d b33e
000002a0: 0a1f 9abe 59d1 0b3f 92be 78be aeca ba3c
000002b0: 582b 1fbe a013 2f3e 7ebc a2be 9695 b83d
000002c0: 39cb 07be 8ff7 223e 4a0b bfbd e5b4 d73d
000002d0: 9fdc 8cbd 2881 7c3c 4670 053e f12b a6be
000002e0: 35a3 603e fbf7 76be 96c0 783e 7177 7bbe
000002f0: 5885 5f3e 6e5b dc3d 326b e43d 3b94 a7bc
00000300: ae72 303e 9ce0 8ebd c6d2 c0be 9e1d a4bd
00000310: 1557 98be 8c23 163e fbf2 303c 48f4 3abd
00000320: c794 873e 860f 43be d9d8 493e 346b 693c
00000330: bd33 4a3e b162 ce3d c0cf e13d 2213 bebd
00000340: c13c b73d 671f 10bc e524 85be 0398 ef3d
00000350: 4f42 553e ee5f a0be b38c 853e 4ca5 0fbe
00000360: f4b6 953d e0d3 b2bc 0ec9 27be dea9 393d
00000370: 3830 033c cdbe 4a3d 9170 51be 550e 06be
00000380: 70d3 d03d 20b9 273e e338 aabd 3a0d 74bc
00000390: ffe0 b039 c83b cc3c 63b9 f6bc 05d7 08be
000003a0: b574 fb3b 1ad7 7d3e 08ee 49be 9629 f4bd
000003b0: 6bbd dfbd 75ce 1fbe a402 e4be 8c48 2d3e
000003c0: c652 4cbe 2267 9a3d c2fb 2a3e 3045 8dbe
000003d0: 1116 1b3e 5b56 52bd 2027 8b3e 9ab1 1c3e
000003e0: 7057 d9bd 376e 3ebd 1bb3 71bc b6c8 3bbe
000003f0: 8b6a de3d 5ab3 b2bd 5808 6f3e dea8 1abe
-0.04034336 -0.0022495256 0.369424 -0.1675293 0.29043326 0.054947462 0.20226121 0.09006743
0.28128085 -0.08425644 0.03829576 -0.10402159 -0.14514318 -0.19175659 0.25293085 -0.121994615
0.070136204 -0.37559897 0.06841703 -0.8544464 0.0020079636 0.114071175 -0.3499176 0.060462914
-0.27094942 0.44998163 -0.2780389 0.022023067 -0.0061864927 0.1545308 0.41811827 0.1787636
0.43622226 0.2599852 -0.035744622 0.21635137 -0.0013668407 0.41178054 -0.44800103 -0.32077077
-0.34943807 -0.068720736 -0.040239017 0.21151608 -0.08298514 -0.16240911 -0.53948367 -0.03522361
-0.4155781 -0.05039289 -0.11762889 -0.30676988 0.57821804 -0.252598 -0.15474541 0.29137805
0.4109232 0.12627988 0.5394723 -0.101177216 0.42150438 -0.4808452 0.3482363 -0.00823389
0.40558153 -0.4669741 -0.07603487 0.06169299 0.0071637076 -0.18057829 -0.07438528 0.15481573
-0.51746285 -0.5959944 0.15478246 0.047043703 0.12864064 0.03294305 -0.20979862 0.2710791
-0.19758727 -0.33782 0.020877987 -0.0308775 0.0038980509 -0.056501023 0.032967135 0.07792603
0.2398376 -0.24212441 -0.33981487 -0.10543823 -0.042823657 0.1810157 -0.17140542 0.19713154
0.21075936 -0.21755296 -0.04689852 0.18648359 0.21350577 -0.21206547 -0.31171113 0.024482515
0.2511216 -0.20355925 0.27933043 0.08789161 0.23669058 -0.0182862 -0.58204347 0.36763507
-0.19071263 -0.08547695 -0.07713427 -0.4697891 -0.123325534 0.32384688 0.24101903 0.19810236
-0.08279811 0.21934128 -0.13046661 0.22178951 0.3946897 -0.33602664 0.24008971 0.029810376
-0.08232079 -0.605019 0.40172356 0.18516886 -0.20344801 -0.11946909 0.17010853 -0.031096997
-0.24624726 -0.12547208 0.07254348 0.0973924 -0.05098475 0.22281365 0.774573 -0.21509856
0.19542721 0.25391173 0.019636333 0.9377854 -0.45275968 -0.07387621 -0.044737395 -0.27258843
-0.20894167 -0.08939875 -0.13533044 -0.055988755 0.09219858 0.07956265 -0.21724285 0.17426157
0.19332954 0.4181925 -0.12985875 -0.057534624 -0.40559816 0.102047965 0.09168309 0.3499556
-0.30101806 0.54616314 -0.24291447 0.022801723 -0.15543878 0.1709733 -0.31784433 0.09012906
-0.13261117 0.15914749 -0.09328325 0.1053255 -0.06878018 0.015411653 0.1303111 -0.324554
0.21937259 -0.24118035 0.24292216 -0.24557282 0.2182821 0.10759626 0.111532584 -0.020456424
0.17231247 -0.069764346 -0.37660807 -0.080134615 -0.29753938 0.14661998 0.010800119 -0.04564312
0.26480696 -0.1904889 0.19711627 0.014246751 0.19746299 0.10077418 0.11025953 -0.09280993
0.08947135 -0.008796549 -0.2600471 0.11698916 0.20826076 -0.3132319 0.26083907 -0.140279
0.07310286 -0.021829545 -0.1638529 0.045328014 0.008007102 0.049498368 -0.20453097 -0.13091405
0.101965785 0.16379213 -0.083116315 -0.014895732 0.0003373697 0.02493085 -0.030117696 -0.13363273
0.0076738247 0.24789086 -0.19719708 -0.119219944 -0.109248005 -0.15606101 -0.44533265 0.16922206
-0.1995345 0.07539202 0.166976 -0.27591848 0.15145136 -0.051351886 0.27178288 0.15302125
-0.106123805 -0.046491828 -0.014752175 -0.18338284 0.10860165 -0.08725615 0.23343027 -0.1510348

context_transformer_0/kq_shared_bottleneck/norm/mul;context_transformer_0/kq_shared_bottleneck/norm/add;context_transformer_0/attention/key/einsum/Einsum;context_transformer_0/attention/key/add;context_transformer_0/attention/value/einsum/Einsum;context_transformer_0/attention/key/add/ReadVariableOp/resource f4 [32]
00000000: f523 91be 78a0 61be 01d2 8fbe a5f8 98be
00000010: a821 74be a70a 933e 0e53 8bbe 78c2 99be
00000020: 833e 8f3d 393a 503d 7efe 903a b456 7f3d
00000030: 3c1c 183e b5fd bb3d 98de 033e 15d2 00be
00000040: 6b4b 2c3d ba4a 323d fe66 e53c 1cd2 b53d
00000050: fb6e 093d 89b8 0b3c f7e5 253d f215 03ba
00000060: 5761 15bd 5a1d 8cbd 12f3 c13c c83a 72bd
00000070: b5c7 1c3d 61bf 58bd 558f 44bd e102 28bd
-0.28347746 -0.2203387 -0.28089908 -0.298772 -0.23840964 0.28719065 -0.27211803 -0.3003118
0.06994345 0.050836775 0.0011062173 0.062338546 0.1485452 0.0917925 0.12877882 -0.1258014
0.04206411 0.043528296 0.028003212 0.08877966 0.033553105 0.008527883 0.040502515 -0.00050005235
-0.036469784 -0.06841536 0.023675475 -0.05913809 0.038276393 -0.05291689 -0.047988255 -0.04101837

context_transformer_0/kq_shared_bottleneck/norm/mul;context_transformer_0/kq_shared_bottleneck/norm/add;context_transformer_0/attention/key/einsum/Einsum;context_transformer_0/attention/key/add;context_transformer_0/attention/value/einsum/Einsum;context_transformer_0/attention/key/add/ReadVariableOp/resource1 f4 [32, 32]
00000000: 81a8 ccbd 1457 d8bd 86ad febd c6a1 db3d
00000010: 5179 54bc 86e7 9ebc baf3 bd3d a94c 503c
00000020: 9e32 bd3e c2e9 753e 94ec a8bd 73e6 6f3d
00000030: f30b 06be a15d e43a a5f5 073e 5bc2 79bd
00000040: 9c88 9e3d fa4f 593d 250c 1fbe cd1f 12be
00000050: d2f6 e9bd 1fc3 ccbd 61fe c23d b8cf fc3d
00000060: a042 2b3e 8b1d f7bd fff7 e6bd 5d6e ebbd
00000070: 6139 48be 5f38 96be ed3c aa3d c020 973d
00000080: e8de a5bd a1e5 3ebd a2e8 71bd daa8 d93d
00000090: ebc3 19bc 4cf4 3d3c 9d54 6a3d 04f4 afbd
000000a0: 95a3 c73e 2ee2 2c3e d2ec 6bbb c7da ea3c
000000b0: 5a21 c7bd af99 63bc 7799 053e 52e5 20bc
000000c0: b053 513d 164c 113a b8cf abbd bf86 91bd
000000d0: 7107 c6bd 10e9 9abd ea69 a33c c1c5 093e
000000e0: 9102 e23d 081b babd a995 bcbd 6fdb b4bd
000000f0: 614e 0dbe 3e65 8bbe cc89 c03d 3c29 043c
00000100: 0534 a4bd 2d47 cbbd 6f12 d5bd 0842 013e
00000110: 427a 0ebd 3274 22bd f6ea 863d f76f 9abc
00000120: f102 b53e 5cef 553e 4c8b 7bbd 76ab 7b3d
00000130: 5e56 23be 69ae e13c cdd4 223e e297 25bd
00000140: c5c5 4c3d 628f 893d 79eb 03be b70c 17be
00000150: 1f0a ddbd 3d1d 0bbe d0a2 683d 8b24 eb3d
00000160: b1e2 363e cfae dfbd 20ee 02be 4d01 31be
00000170: 2f15 27be 4264 8bbe af9d f23d 108c 623d
00000180: 0163 d8bd cd99 f1bd a6dc 05be c102 fc3d
00000190: fb2c 29bd d60a 8fbc 2048 a93d 061c f33c
000001a0: 9cbf b93e e06b 733e 65e3 c8bd 605c 9a3d
000001b0: 3681 27be 7862 d93b e994 3a3e 8a65 89bd
000001c0: 8aaf a83d 9777 bf3d 489c 28be 88e8 23be
000001d0: 0c74 05be a2ae bbbd 9e91 d43d 41fd 1f3e
000001e0: 7ca5 2f3e 2065 0cbe f841 27be f396 3abe
000001f0: 8e09 42be 3ad4 85be 4c20 0e3e b2db cb3d
00000200: f6b3 bf3c 643b 34be 3df4 18bc b97a 303e
00000210: 3310 033b 23ff cbbd 406d 0c3e 7600 983d
00000220: cb9e 4b3e 5727 8e3e 2459 f9bd a25f dc3d
00000230: 8e8b 23be 2e33 16ba b6d2 ad3d aa8d 09be
00000240: 9d5d b43d 63e8 a03d e2a3 01be de4c 2bbe
00000250: 14dc 1dbe 19de 12be ffc4 a93d bae0 40bd
00000260: 63ee 1d3e d5c6 03be fa8f 4bbe 751f 66be
00000270: 31c9 6cbe 1fa3 edbd 9e5b 433c 7546 cd3d
00000280: 85ee 863d 84c2 cb3d 0f03 fb3d 1e4b 2bbe
00000290: 1065 073c 5628 963c acca e1bd d9fa 313c
000002a0: 281e b7be 5e15 53be bed5 4d3d 2a72 1cbd
000002b0: 4431 1e3e 0a95 7e3c ef79 3abe 27d4 f13c
000002c0: 7ca9 80bd e7a7 bcbd 3155 103e 6720 173e
000002d0: aeee 003e f1d5 e83d b3fa e2bd b95f 30be
000002e0: 422f 20be ef16 013e 7efe 183e f807 323e
000002f0: 36ae 4a3e b39b 9e3e 096e 14be 20e8 c2bd
00000300: 18ff efbc d4dd 2bbe b7b7 9ebc 9046 573e
00000310: ba10 d7bb b778 8ebd 2d42 103e 0591 983d
00000320: 8c2a 8c3e 53f7 8b3e 82d5 d0bd 3efe ab3d
00000330: 45a4 2dbe 7eeb 063c 4e59 d63d dfaf eebd
00000340: 11c8 0b3e 30da 633d 1a9f 0cbe 4787 28be
00000350: e43c 3dbe 3a43 17be a18c 913d b95c b33c
00000360: 833e 123e 0e29 1abe 174c 1ebe 381c 48be
00000370: 4191 87be cd76 0cbe 2c7c 013d 89e9 a53d
00000380: eace 17bd eda8 1bbe 57b9 8abd 5460 4d3e
00000390: eadf aebc 62a3 b6bd 27f9 e73d a33c 423d
000003a0: 7edf 943e 6165 8f3e 1b17 fbbd 3dba f03d
000003b0: d3a3 52be c93f f03b 9181 dd3d 05b3 e2bd
000003c0: d459 e83d 5f6e e83d f488 1ebe 61fa 27be
000003d0: 5bfe 26be f317 ffbd 2fad fc3d eef2 853d
000003e0: 9454 5c3e 46ed 12be e7a3 40be 3ea6 4ebe
000003f0: 1f24 83be ebfa 68be 5598 6c3d bca4 b73d
-0.09993077 -0.10563484 -0.12435441 0.10724215 -0.012968377 -0.019397508 0.09275003 0.01271359
0.3695268 0.24014953 -0.08248249 0.058569383 -0.13090496 0.0017422923 0.132773 -0.060976367
0.077409 0.053054787 -0.15531977 -0.14269944 -0.1142403 -0.09998154 0.09521175 0.12344307
0.16724634 -0.12066182 -0.1127777 -0.114956595 -0.19553138 -0.29339883 0.08312402 0.073792934
-0.080991566 -0.04660571 -0.059059747 0.10627909 -0.009385089 0.011593889 0.0572096 -0.08591464
0.3899199 0.16883156 -0.003599931 0.028668774 -0.09723158 -0.0138916215 0.13046823 -0.009820299
0.0511052 0.0005542649 -0.083892286 -0.07105779 -0.09669388 -0.075639844 0.019947965 0.13454343
0.11035646 -0.09087187 -0.09208233 -0.08830916 -0.1379943 -0.2722568 0.09401283 0.008066472
-0.080177344 -0.09925685 -0.104039066 0.12622845 -0.034784563 -0.039661594 0.06587784 -0.018852217
0.35353807 0.2089209 -0.06141214 0.061442815 -0.15950915 0.027548986 0.1590149 -0.04042805
0.049993295 0.06716801 -0.12882794 -0.14750944 -0.10792946 -0.13585372 0.056795895 0.114815794
0.17859913 -0.10922014 -0.1278615 -0.17285652 -0.16316675 -0.27224928 0.11846482 0.055309355
-0.105657585 -0.11796913 -0.13072452 0.12305213 -0.041302662 -0.017461222 0.0826571 0.029676449
0.36279 0.2377162 -0.09808997 0.075371504 -0.16357884 0.006634053 0.18220867 -0.0670882
0.082366064 0.09348982 -0.16465867 -0.16006672 -0.1303255 -0.09164168 0.10379337 0.15623952
0.17152971 -0.13710451 -0.16333759 -0.18221645 -0.18948957 -0.2613848 0.13879508 0.09954013
0.023401242 -0.1760078 -0.009335575 0.17234315 0.001999867 -0.09960773 0.1371355 0.07421963
0.19884793 0.2776439 -0.12175205 0.10760428 -0.15971205 -0.0005729672 0.084874555 -0.13432947
0.08806918 0.07856824 -0.12660173 -0.16728541 -0.15415984 -0.14342536 0.08289527 -0.047089316
0.15422969 -0.12868817 -0.19879141 -0.22472937 -0.23123623 -0.116033785 0.011923699 0.10023204
0.06588463 0.0994921 0.12256443 -0.16727874 0.008263841 0.01832978 -0.11024985 0.010863029
-0.35765195 -0.2061362 0.05025267 -0.038194813 0.15448481 0.015538463 -0.18210576 0.029520107
-0.062823266 -0.09211712 0.14094998 0.14758454 0.12591049 0.11368931 -0.11082973 -0.17224015
-0.15643027 0.12606405 0.14940831 0.17385852 0.19793019 0.30978164 -0.144951 -0.095169306
-0.029296443 -0.1678384 -0.019374711 0.21023011 -0.0065632733 -0.06956618 0.14087744 0.07449535
0.2737621 0.2733713 -0.101969734 0.08398102 -0.16957195 0.008234857 0.10466252 -0.116546385
0.13650538 0.055628 -0.13732567 -0.16457854 -0.18480259 -0.14771739 0.07106901 0.0218948
0.14281659 -0.15054724 -0.15458713 -0.19542015 -0.26478007 -0.13717194 0.03161256 0.08101184
-0.037062563 -0.15201159 -0.06773632 0.20056278 -0.021347005 -0.089178815 0.11326819 0.04742111
0.2907676 0.28007033 -0.122602664 0.11754272 -0.20570306 0.0073318225 0.108157285 -0.110693015
0.11345258 0.113491766 -0.15481931 -0.16404106 -0.16307966 -0.1245574 0.1233772 0.06540476
0.21516639 -0.14348325 -0.18812524 -0.20180604 -0.25613496 -0.22751968 0.057762463 0.089669675

context_transformer_0/kq_shared_bottleneck/norm/mul;context_transformer_0/kq_shared_bottleneck/norm/add;context_transformer_0/attention/query/einsum/Einsum;context_transformer_0/attention/query/add;context_transformer_0/attention/value/einsum/Einsum;context_transformer_0/attention/query/add/ReadVariableOp/resource;context_transformer_0/attention/Mul;context_transformer_0/attention/Mul/y f4 [32]
00000000: 8d34 44be d56b 36be 0e3e 42be 06bb 56be
00000010: 2f8e d2bd f374 593e 072f 08be e780 2cbe
00000020: 0b8b 043e 6bfd ff3d e921 ebba fb99 9c3d
00000030: ddfb 4c3e 27a8 313e 6339 363e 4719 2fbe
00000040: 7b31 d7bd 0940 ce3c 6e33 c5bc 9afa c23d
00000050: c3e8 733d b6e2 803d cfd8 8d3c be9d 29bd
00000060: 1951 53be fb29 27bd e01b 403e 6468 1ebe
00000070: 4ba0 823b 79a2 b5bb 7634 10bc dc98 0d3d
-0.19160672 -0.17814572 -0.18968984 -0.20969781 -0.102810256 0.21236019 -0.1329919 -0.16846047
0.12943666 0.124995075 -0.0017939183 0.07646557 0.20017953 0.17349301 0.17795329 -0.17099486
-0.105074845 0.025177019 -0.024072375 0.09520455 0.05954815 0.06293242 0.017315296 -0.0414102
-0.20636405 -0.04081152 0.18760633 -0.1546951 0.0039863936 -0.00554305 -0.00880157 0.034569606

context_transformer_0/kq_shared_bottleneck/norm/mul;context_transformer_0/kq_shared_bottleneck/norm/add;context_transformer_0/attention/query/einsum/Einsum;context_transformer_0/attention/query/add;context_transformer_0/attention/value/einsum/Einsum;context_transformer_0/attention/query/add/ReadVariableOp/resource;context_transformer_0/attention/Mul;context_transformer_0/attention/Mul/y1 f4 [32, 32]
00000000: 4505 35bd 794c e83c 2c85 e03c 7a9c 2cbd
00000010: 4324 8bbb 3486 de3c f787 1b3c d843 d7bc
00000020: 238b 943d f037 4cbd d2cb 2a3d ba68 933c
00000030: a7fc 2ebb e3aa 183d ea3d fdbb 69b2 8bbc
00000040: 628c 3e3c d878 c93c 45a9 e1bc f7f5 d0bb
00000050: 8525 cdbb 4cb2 18bc b9bd c83c 6a4a 63bd
00000060: 1809 953b 6ac8 e1bb 755e 673d c6c6 00bb
00000070: cd93 febc a0e8 b2bd 67cf be3c 3f5b 21bd
00000080: 86dc 4dbd 7b30 ae3c 9680 abba b1a4 01bd
00000090: c717 60bc 4d89 ec3b db2c 943c 13af 0cbb
000000a0: 75e8 a53d ec2d 01bd 1c91 263c cfdf 833c
000000b0: 6e70 c3bc 816d f23c 0d69 973c 35bb 43bc
000000c0: 78a9 f23c 06b8 4e3d 4528 6cbc 2c68 7dbc
000000d0: 6804 69bc e72b afbc 3538 dc3c b19a 0abd
000000e0: 6112 073d 98a0 8cbc 3b21 453d 37cd 63bc
000000f0: 99eb 82bc 6e85 a1bd fa31 073c 7036 23bc
00000100: 0ec0 5bbd e3d8 4f3d 23f9 7e3c 1675 27bd
00000110: 2d32 91bc 8291 0f3d f9a7 6f3c 1e86 d9bc
00000120: f278 833d 7233 6ebd f849 de3c 8959 8e3c
00000130: b0e1 dabb e276 163d 17eb c1ba 6144 60bc
00000140: 1004 7b3c dbe2 e73c 973e 5dbc 7d2e 3dbc
00000150: 7c15 a1bc e8cf d2bb cc51 ef3c 0400 2ebd
00000160: c106 2f3c 5b42 0ebc 1210 703d 9011 253b
00000170: 75a8 dfbb 50c0 a0bd 622a 893c b8dd 0dbd
00000180: ffbf 1dbd 426c 333d 3f75 e83c bb04 63bd
00000190: 0fa6 3ebc 56e1 0f3d c027 5c3c c657 31bd
000001a0: ef03 a93d efb2 81bd 0396 223d 2884 8d3c
000001b0: fd79 40bc daff 1b3d 7076 ddbb 3426 0bbc
000001c0: 4b07 a03b b2c0 683c a8f6 97bc 3a00 d0ba
000001d0: 6aef 93bc 1b20 a9bc 23b7 703c cc7a 65bd
000001e0: 9404 d73b 5751 9cbc f359 8d3d 98bd 60bc
000001f0: e0cc c2bc 50b6 b7bd c68c 073d a735 26bd
00000200: 3238 83bc f424 803d 470c 273d da4a 5abd
00000210: 0fef 133c f36c 5f3d 618d 85bc 0c46 14bd
00000220: 9806 2e3d 280b 9bbd 17a1 383d b5e0 4ebc
00000230: 6197 fd3c 02a7 87bb a558 20bd 5f61 993c
00000240: 31e6 b3bc 018c 18bc 1328 d03b f06d bf3c
00000250: 24e5 f43c ba95 bf3c fc1c 1bbd 9cb0 54bd
00000260: 933d b3bc 765b 503c 697e 963d df79 b93c
00000270: a434 493c 209f 10bd 4f5d 8ebc aa33 3ebd
00000280: 75f2 433d bd04 25bd dbef 9fbc 9b07 243d
00000290: 809b a83c 0440 cebc 905b 8abc 7b73 103d
000002a0: 71fd aabd 44cc 433d 2761 35bd f263 b4bc
000002b0: 9d12 2f3c e919 02bd 0a82 ad3b 7798 9a3c
000002c0: 3b53 7abc ad0a bfbc 9dba ab3c 1f95 e83b
000002d0: d7fc dc3c 5949 b93c f439 d2bc 9365 803d
000002e0: 9509 6abc 13d0 b23c 1534 6dbd f063 1e3c
000002f0: f335 813c cfdf a33d 670a 02bd 4b62 523d
00000300: afeb 17bc cc43 853d 5720 e53c f168 6abd
00000310: f042 4d3c 2cab 403d 55c1 a5bc 2e25 33bd
00000320: cfd4 583d ed03 85bd 1c61 4a3d bb0e 01bc
00000330: 62c1 693c 55d5 223c 94f7 0cbd d87a 4a3c
00000340: de31 35bc e7e6 a9bc 4814 8dbb 3fe4 0e3c
00000350: 9824 203c ebcd 49b9 7ec4 afbc 5aa7 4cbd
00000360: 945e 42bc 23e8 923c 920f a13d 1fae cc3c
00000370: 623f 443b 4291 5bbd 471a 85bc 6ca7 73bd
00000380: c399 b7bc 4eb9 813d 9b48 2a3d 9969 8fbd
00000390: 9ced 063b 3e76 663d a916 dfbb a584 4abd
000003a0: ae7b 5c3d d280 83bd aba1 583d 286a 9cbb
000003b0: b854 1f3c ebbd b93c 922f 01bd 91a8 05bc
000003c0: c6c4 9a35 b4ce c3bb 601e 76bc 5177 2f3c
000003d0: 1e5e 793b 2289 a2bb f8f5 efbb 7737 7fbd
000003e0: 23cc 9cbc d47c 5e3b f25d a43d ff9c 273c
000003f0: b5b1 37bc 11a1 70bd 584e 0a3c b257 8bbd
-0.04419448 0.028356778 0.027407251 -0.042141415 -0.004246266 0.027163602 0.009492866 -0.026277468
0.07253101 -0.049858034 0.041698284 0.017994273 -0.0026700886 0.037272345 -0.007728328 -0.017052846
0.01163015 0.024593756 -0.027546534 -0.0063769775 -0.006260576 -0.009319853 0.02450453 -0.05549089
0.004548203 -0.0068903463 0.056486566 -0.0019649728 -0.031076336 -0.08735776 0.023292257 -0.03939366
-0.050259136 0.021263352 -0.0013084586 -0.031651203 -0.013677544 0.007218516 0.018087795 -0.0021466657
0.08100978 -0.031537935 0.010166433 0.016097931 -0.023857322 0.029593231 0.01848271 -0.011946489
0.029621825 0.050468467 -0.014413898 -0.015466731 -0.014222242 -0.021383239 0.02688227 -0.03383893
0.032976512 -0.01716642 0.048127394 -0.0139039075 -0.015981482 -0.07886778 0.008251661 -0.009961709
-0.053649954 0.05074395 0.0155623285 -0.040883146 -0.017724121 0.035050876 0.01462745 -0.02655321
0.06419553 -0.05815453 0.02713488 0.017376678 -0.006679736 0.03673447 -0.0014794794 -0.013688178
0.015320793 0.028306415 -0.013503692 -0.011546728 -0.019663565 -0.0064334758 0.029213808 -0.042480484
0.010682763 -0.008682813 0.058609076 0.002518747 -0.0068255016 -0.07849181 0.016743843 -0.034635276
-0.03851318 0.043804415 0.02837622 -0.055424433 -0.011636271 0.035127006 0.0134372115 -0.043296598
0.082527034 -0.06332957 0.039693844 0.017274931 -0.011747834 0.038085796 -0.0067585036 -0.008492995
0.004883682 0.014206098 -0.018550232 -0.0015869208 -0.018058497 -0.020645192 0.014692101 -0.05602531
0.006561825 -0.019081755 0.06901922 -0.013717078 -0.023779333 -0.0897032 0.033093236 -0.04057851
-0.016018007 0.06257048 0.040783193 -0.05329404 0.009029164 0.05454726 -0.016302766 -0.036199614
0.042486757 -0.07570487 0.045075502 -0.0126268165 0.030955972 -0.004139782 -0.039147038 0.018723188
-0.02196035 -0.009310723 0.0063524335 0.023367852 0.029894419 0.023386825 -0.03786944 -0.05192624
-0.021879947 0.0127171185 0.073483296 0.02264112 0.012280617 -0.035308003 -0.017378477 -0.04643599
0.047838647 -0.040287722 -0.019523552 0.040046316 0.02058196 -0.02517701 -0.016889364 0.03526638
-0.08349121 0.047802225 -0.044282105 -0.022020314 0.01068559 -0.03176299 0.005295043 0.018871529
-0.015278633 -0.02332052 0.020963008 0.0070978547 0.026976032 0.022617983 -0.0256624 0.06269374
-0.014284511 0.021827733 -0.057910997 0.009667382 0.015772795 0.080016725 -0.0317482 0.05136327
-0.0092725 0.06507072 0.027969522 -0.057228986 0.012528166 0.047038242 -0.02023379 -0.04373663
0.052937325 -0.064948894 0.049409017 -0.007877047 0.014267297 0.009938558 -0.034415796 0.01235839
-0.011059253 -0.020739986 -0.004305396 0.00872141 0.00977435 -0.00019245564 -0.021456 -0.049964286
-0.0118633695 0.017932957 0.07864298 0.024985371 0.0029945006 -0.053605326 -0.016247882 -0.059485838
-0.022412186 0.06334172 0.04157315 -0.07002563 0.0020588404 0.05626511 -0.006808121 -0.049442906
0.053828888 -0.06421055 0.052888554 -0.004773397 0.009724788 0.022673568 -0.031539507 -0.008157865
1.1531163e-06 -0.0059755687 -0.01502189 0.0107096 0.0038050483 -0.004960195 -0.007323023 -0.062308755
-0.019140309 0.0033948915 0.08025731 0.010230302 -0.011211802 -0.058747355 0.00844153 -0.06803836

context_transformer_0/ffn_layer_0/intermediate_dense/einsum/Einsum;context_transformer_0/ffn_layer_0/intermediate_dense/Relu;context_transformer_0/ffn_layer_0/intermediate_dense/add f4 [32]
00000000: 6fe7 e5be b8c6 cdbe 737d bcbe 3b8d fdbe
00000010: 1998 dabe 9362 d6be 599c 38be d547 80be
00000020: cc1a a9be a332 90be 4c62 b5be 540b 6cbe
00000030: 324a 9dbe 8e82 b8be 08e7 d0be a01c f9be
00000040: e607 e4be 3081 c1be 0acc 1ebf 197f 75be
00000050: 52a6 b5be a118 b0bd 1410 d8be 7b59 c9be
00000060: fe7c c8be cae4 0bbf 6777 a7be 3a2c 93be
00000070: a2ee 23be 9165 07bf e3f6 c4be 4d64 97be
-0.44903132 -0.40190673 -0.3681446 -0.49521813 -0.42694166 -0.4187208 -0.18028392 -0.25054803
-0.33028257 -0.28163633 -0.35426557 -0.23051196 -0.3072067 -0.36037105 -0.40801263 -0.48654652
-0.44537276 -0.37793875 -0.6203009 -0.23974265 -0.35478455 -0.085984476 -0.42199767 -0.3932608
-0.3915786 -0.5464598 -0.32708284 -0.2874468 -0.16009 -0.52889353 -0.3846961 -0.2956871

context_transformer_0/attention/norm/mul;context_transformer_0/attention/norm/add;context_transformer_0/ffn_layer_0/intermediate_dense/einsum/Einsum;context_transformer_0/ffn_layer_0/intermediate_dense/Relu;context_transformer_0/ffn_layer_0/intermediate_dense/add f4 [32, 32]
00000000: 9485 be3d 4737 363e 834d 4ebe cae1 a63d
00000010: fd1d 5ebe 8eb8 433e 3f26 693d b3cc d8bc
00000020: 896c d5bd 84a8 be3b fcf1 19be fabd 3e3d
00000030: 97a2 603e 7647 303e 94d7 d33c 5693 99bc
00000040: 9f64 143e e3d2 28be c968 46bd fe50 693e
00000050: ad5a 933d 0687 c13d 6704 733e 7ef4 86bd
00000060: 8bc5 07bd 8896 d13d b84e 2a3d 7cfb 313d
00000070: e001 c83d af79 c6be 117d a93d 43e0 ddbd
00000080: 4716 e13c 7e42 2cbe 17e9 cebc da10 80be
00000090: bfc6 543e b4af 0bbd ef99 29be c450 dabd
000000a0: d2d4 c5be 3b6f 82bd b59f e03c 31ed adbc
000000b0: d030 0c3e df43 4cbd 4cde 003e e71c 1abe
000000c0: 585c debd 2799 893d 229c d03e 5268 1bbe
000000d0: 3123 0cbe 803b 493e 6596 7e3e c3d1 1fbe
000000e0: dbd4 59be 6f82 923d 8a29 923e 3623 a6be
000000f0: 466b 55be 7dac b8bd 81fc a03d e73a 0a39
00000100: c8ac d1bd 7c53 8fbd dff3 a9be 0e15 2abe
00000110: db6c 773c 04c6 04be d904 68bd a47c 193d
00000120: 5a0c 13bd 8953 debb 3b9f d6bd 0587 5ebe
00000130: d78c 023e d998 c4bd b7a1 843e fe59 fb3d
00000140: 27fd 0bbe fc6d 49ba e1e3 ae3e 99d5 24be
00000150: b4ca 05bc 2957 173e e54c 78bd e2d7 143e
00000160: 620a 1a3d 1e5c dabb f203 b2bc ab6f e7bd
00000170: ba95 e6bd 8506 733d 130e b43d 93da f23d
00000180: 5234 1f3e 1ec5 ccbd 5b09 31be e35b debd
00000190: 8f43 243e 510c 1dbe 50d9 2fbe c330 073d
000001a0: 8aba c9be 2969 64be 52e5 2a3c 268c cdbc
000001b0: e482 1e3e ca40 10bc 5ae9 5c3e ce25 41be
000001c0: 6462 aabd 29e0 d2bd 8c1b 153f e68a d53c
000001d0: b43e 11be 429c 8c3e 4dea 993e ced5 c0bd
000001e0: 3df8 49be 38f5 563c 1093 8b3e 1196 b4be
000001f0: 74bb 08be 09b6 50be 96a7 513d 0c55 413d
00000200: 5617 0bbd 7366 18bd 927b 483d 05d3 9ebc
00000210: 996e aabd 47b9 7ebe d51c 8a3e 52dc 57bd
00000220: 5c31 56be 52cf 83be b961 92bd a82c 4e3d
00000230: 69bc d1bc 0a89 23bd ad8e dbbd 1ac2 8dbe
00000240: c21c e0bd 2f28 053c a6c9 413e 0f83 50be
00000250: 8995 68be 4a01 79bc 043c 273f 33d3 3bbe
00000260: 778f 86be edda b03e 89e9 e9ba d16d 4abe
00000270: 7e05 65be 43ef 8f3c ef34 5cbd e27c 0f3e
00000280: 066a be3d c0e6 4cbe c75d 4a3b d394 2fbe
00000290: e231 9c3e 0b8f 9e3d 44b0 12be c0c5 5dbd
000002a0: 7796 84be b178 c6bd 6b30 943c 3828 4cbe
000002b0: c930 f53d 7197 673d 234a 3c3d 2a75 f2bd
000002c0: dc92 343c ec14 4cbd 2a89 e63e 2fa8 8f3d
000002d0: fe99 19be da76 a03d 2ae1 353e c746 c5bd
000002e0: 4069 67be 6081 fdbc f698 1b3e 2977 91be
000002f0: 0671 f4bd c8a7 9cbc c08d c63d 960b d9bd
00000300: ed81 16be 4eca 04be db81 6abd a65f 03be
00000310: 5752 ab3c 884f 26be b223 f43b 06d2 93bd
00000320: 2b45 7f3c 4b36 bbbd 2b00 723d 73a2 143d
00000330: f4e9 883d 8c0f 0dbe 0bdb ed3d 5e27 063d
00000340: 529c 62be ad72 883e 8ca5 833e ee6d c9be
00000350: a94f ddbd a774 173e a17e 62be da40 bebd
00000360: e156 0abd 6ee7 b83d 8638 423d db90 efbc
00000370: a109 f0be 79c1 6fbe 75bb c4bd 2d3e 0d3e
00000380: efbb 6a3e 05f7 813e 55fa 3c3e f73e 2b3e
00000390: 8f0d 863d ef49 ab3d 5b72 9cbe 9fac 933d
000003a0: 0448 c7bd 2e2a 3dbe c0e7 9e3e d1cf c13d
000003b0: 2cf9 a2bd 9fa5 b03d 656d 813e 25a4 4bbe
000003c0: be0d 30bd 50dc adbe 05a6 1c3e bf44 983e
000003d0: d147 6abe c8b6 b43d 61bc 943d d247 47be
000003e0: 7088 95be 3cf5 7abe d856 493e e916 17be
000003f0: 904d 00bd 4027 bfbd 06cb 0b3e ffd3 083c
0.09302822 0.17794524 -0.20146756 0.081485346 -0.21691127 0.19113371 0.05692124 -0.026464796
-0.10421092 0.0058184285 -0.15033716 0.046567895 0.21937023 0.1721476 0.025859632 -0.018747013
0.14491509 -0.16486697 -0.048439775 0.22784802 0.071950294 0.09449582 0.23732148 -0.06589602
-0.033147376 0.1023379 0.04157898 0.043452725 0.09765983 -0.38764712 0.08275808 -0.1083379
0.027476443 -0.1682224 -0.02525763 -0.25012857 0.2077894 -0.03410311 -0.16562627 -0.10659936
-0.38638932 -0.06368872 0.027419904 -0.021231266 0.13690495 -0.049869414 0.125848 -0.15050088
-0.10857457 0.067186646 0.4074412 -0.15176514 -0.136853 0.19651604 0.24862058 -0.15607361
-0.21272604 0.071537845 0.28547317 -0.3244874 -0.20841703 -0.090172745 0.07860661 0.00013182648
-0.102380335 -0.06998345 -0.3319387 -0.16609594 0.015101637 -0.12966162 -0.056645248 0.037472382
-0.03590045 -0.0067848605 -0.104795896 -0.21731193 0.12749039 -0.09599466 0.2590463 0.12273024
-0.13670789 -0.00076839305 0.34158233 -0.16097106 -0.008166004 0.14779343 -0.060620207 0.14535478
0.037607558 -0.0066638133 -0.021730397 -0.11300596 -0.11259027 0.05933239 0.08791747 0.11858096
0.15547302 -0.099985346 -0.17288725 -0.1085737 0.16041397 -0.1533673 -0.17172742 0.033005487
-0.3940013 -0.2230574 0.010430651 -0.025091242 0.15479618 -0.008804509 0.21573392 -0.18862078
-0.08319548 -0.102966614 0.5824516 0.026067208 -0.14184076 0.27462965 0.3006157 -0.0941578
-0.19723602 0.013119988 0.27260637 -0.35270742 -0.13352758 -0.20381941 0.051185213 0.047200248
-0.0339578 -0.03720708 0.04894597 -0.019387731 -0.08321876 -0.24875365 0.26975122 -0.05270035
-0.20917267 -0.2574411 -0.07147545 0.050335556 -0.025602536 -0.039925613 -0.107205726 -0.2768715
-0.10942985 0.008127256 0.18924579 -0.20362495 -0.22713293 -0.015198061 0.6532595 -0.18342285
-0.2628133 0.34542027 -0.0017846088 -0.19768454 -0.22365376 0.017570144 -0.05376142 0.14012483
0.09297566 -0.20009899 0.003087865 -0.17146616 0.30506808 0.07742127 -0.14325052 -0.054143667
-0.25896046 -0.09690989 0.018089494 -0.19937217 0.11972196 0.05654091 0.04596914 -0.118387535
0.011021342 -0.04982464 0.45026523 0.070145 -0.1500015 0.07835169 0.17761675 -0.0963264
-0.22598743 -0.03094548 0.15195069 -0.28411224 -0.1193562 -0.019122973 0.096950054 -0.10597913
-0.14698 -0.12967798 -0.057252746 -0.12829456 0.020913286 -0.16241276 0.0074505443 -0.07217793
0.015580456 -0.09141215 0.05908219 0.036287736 0.06685248 -0.13775462 0.11614045 0.032752387
-0.22129944 0.2664999 0.2571224 -0.39341682 -0.108062096 0.14790593 -0.22118618 -0.09289713
-0.03377426 0.09028517 0.047417186 -0.029243877 -0.46882346 -0.23413648 -0.09606067 0.1379325
0.22923253 0.25383773 0.18454869 0.16723238 0.06545555 0.08363711 -0.30555996 0.07210659
-0.09730533 -0.18473122 0.31036186 0.09463466 -0.07957682 0.0862534 0.25278774 -0.19886835
-0.042981856 -0.33957148 0.15297706 0.2973995 -0.22878958 0.08823925 0.07262493 -0.19460991
-0.29205656 -0.24507612 0.19662035 -0.14754833 -0.03132397 -0.09333658 0.13651666 0.008351325

context_transformer_0/ffn_layer_1/intermediate_dense/einsum/Einsum;context_transformer_0/ffn_layer_1/intermediate_dense/Relu;context_transformer_0/ffn_layer_1/intermediate_dense/add f4 [32]
00000000: 10c5 33be 062b 07be 60b5 eabd 87e7 71be
00000010: 5806 2fbe 4503 96be 7f31 28be 06e6 c2be
00000020: 5b2a d4bd 0354 a4be 390c acbd d19d 22be
00000030: a7f2 92bd 7de1 debd 5754 c7be fd59 29bd
00000040: 3a9c 15be 3fa9 a8bd 8757 aebe 8b35 d3bd
00000050: ba87 99bc d040 85be ca9e 95be 7038 5bbe
00000060: 2fa4 8fbd 7a19 edbd e7a0 d3be d725 a9be
00000070: 75e3 b1bd 96b4 32be 7176 6fbe 78e2 53bd
-0.17555642 -0.13200006 -0.11460376 -0.23623477 -0.17092264 -0.2929937 -0.16425131 -0.3806612
-0.10359641 -0.32095346 -0.08400769 -0.15880515 -0.071751885 -0.10882852 -0.38931534 -0.041345585
-0.14610377 -0.08235406 -0.34051153 -0.10312947 -0.018741477 -0.2602601 -0.2922271 -0.21408248
-0.070137374 -0.11577125 -0.41333696 -0.33036682 -0.08685962 -0.174517 -0.23385026 -0.05172965

context_transformer_0/ffn_layer_0/norm/mul;context_transformer_0/ffn_layer_0/norm/add;context_transformer_0/ffn_layer_1/intermediate_dense/einsum/Einsum;context_transformer_0/ffn_layer_1/intermediate_dense/Relu;context_transformer_0/ffn_layer_1/intermediate_dense/add f4 [32, 32]
00000000: a5d8 d5bc b22f 1cbe b497 2c3d 0fb2 b2bd
00000010: 834c 153e 5190 a23e be87 46be 60e4 fc3d
00000020: 5872 08bc d709 ddbe 43f6 94bd 05c6 493d
00000030: 291c 0fbd e3a2 6b3e 7ae7 983e a43f c7be
00000040: fb5e 9c3d 68f3 383e b3e6 a53e bca1 113e
00000050: 256e 97be 11eb 493e 67f5 113e 7ef5 3fbe
00000060: 992a ffbe 1aed 3a3e 12b6 903e 100a cdbe
00000070: 6e71 fabd 7141 4fbd d8e2 25be c282 7dbe
00000080: 170b be3e 4115 13be ee09 9f3e 13e7 393d
00000090: 4ce4 63bd df2d 5d3d 28ec 09bf e800 943e
000000a0: 5718 18bc d52d 9ebe 9368 4bbc b671 0e3e
000000b0: 15fe 79be 4bce 3e3e e321 f1bd ccbd dcbd
000000c0: 68ed a43d ef03 893e f94f 9d3d 5f73 fb3d
000000d0: 8254 27be bb44 debd 7012 19be 06f3 74be
000000e0: bdea c2bc 79a3 383d 987c 773d 792b 68bd
000000f0: df18 c0bc 360a 21be 2f52 043e be78 08bf
00000100: a4b3 9ebd 3271 893c 7fd1 ce3d b332 a73d
00000110: b23e 103d 958f b63c fb03 923d cd43 b7bc
00000120: 1a69 45bd 334a a0bd 107a 79bc 6eb2 e83c
00000130: 098f 203d a9a5 033e 2516 ae3c f5aa f9bd
00000140: e450 d4bc 9b45 0a3e 9500 6b3e 1646 a63b
00000150: 4d62 fd3c 9ae4 2fbd 1a1f f93d 9030 ab3d
00000160: d94b 58bd 1a7b 223e 6ffe dbbb c417 a6bc
00000170: 2589 16bd e930 c43d 5859 a03c 4f07 0dbc
00000180: 1dc2 df3d 3936 0c3e e001 2a3e 089d 78bc
00000190: 6dcc 1bbd c7f0 26bd 1310 d4be c6a3 a63e
000001a0: 4c78 873e e3f3 18be 5614 a8bd a490 a8bd
000001b0: 9792 a3be 004a 96bc 4296 1b3e ef12 02bf
000001c0: ff72 943d 9458 8c3d 46db a33e 0cdc ab3d
000001d0: 4667 a7be c7d3 3e3e c528 5abc ab73 2abe
000001e0: 67ba cabe c673 14be 886d 6b3e 7196 f0be
000001f0: 65a3 243d e8b4 17bd 408a 55bd b9f7 15be
00000200: 522d 09bc af40 9d3c c57e 6a3c d071 b8bc
00000210: 80f8 c3bc 3e43 5fbc 92e8 55bc 2471 c33b
00000220: 056b 1bbc 4a9c 443a b563 dd3c c2d6 b03c
00000230: 3c63 863c fdb0 fb3c 2163 be3c df70 44bc
00000240: 6c6e fc3c 1b86 973c 8b64 993d dfde 803b
00000250: d46b 263c c32a 383d b297 b73c e533 35bc
00000260: 6902 4cbc 98d6 c63b 1d3d 423d 30db 09bd
00000270: 0176 06bc c270 8ebb 3817 9e3b 49bf 233c
00000280: 5730 a9bd 3dcd bf3c 40c4 61be 14f9 4d3c
00000290: e4dc 00bd f154 953e 3f41 69be cd7f c03c
000002a0: d2a5 993b c242 bebe bd15 aabe 69af b63c
000002b0: ceec 943d 5793 f7bb 57c0 6c3d d073 b1bd
000002c0: c7c3 c3bd d1e8 f33d 6c71 793e 2e86 0fbd
000002d0: 8e88 81bd d921 423d f3af 5ebd 1967 093e
000002e0: f137 cfbe 073c 32bd 3425 0a3a 381a 9fbe
000002f0: 1da1 32be f521 883d 7539 3d3e 880e 47be
00000300: 5c2b ffbd 10df 653e d3b4 1f3e 4b7e 6a3d
00000310: 555a 67be ce61 e93c f794 e2bc 4d1e 7d3e
00000320: e1cc c0bc cf1d bf3d 961a 40be 29bf 57bd
00000330: 93fe 24bd 34b7 183d e2d1 54be a5b7 aebd
00000340: ffcb 8fbd e13b b63e dd0d 163e 2886 d1bd
00000350: c72f 0fbe af88 e73c 104b 09be 5c01 293e
00000360: b730 7bbd 33bf 7c3e 9684 793d ba4d 24be
00000370: 9f28 9dbd e810 063e e1e2 7abe 3f67 753d
00000380: bb8c 8abc 50d9 b93c b26d 6c3d a1f9 4e3e
00000390: 3aa5 7dbd f722 86bd bef9 773e 29e1 ae3d
000003a0: 7809 b7bc cea4 78be 7c5d 64be 82e4 c8bd
000003b0: da7f ae3c f422 183d 3922 283d 73c7 c6be
000003c0: b1e8 093d ba22 cebd 1c27 5a3e df50 e7bc
000003d0: a199 44be 997b 7f3d 96a8 083e 62db c6be
000003e0: b90b 69be 907c 5e3d b673 173c 8a3e 6bbe
000003f0: 02e3 5abe df7d 95bd e0a2 a2bd 6e53 c53c
-0.02610428 -0.1525257 0.042136863 -0.08725368 0.14579968 0.3175073 -0.19387719 0.123482466
-0.008328043 -0.4317157 -0.07273533 0.04926111 -0.034938965 0.23011355 0.29864103 -0.3891574
0.076353036 0.18061602 0.32402572 0.14221853 -0.2957622 0.19718577 0.1425377 -0.18745992
-0.49837187 0.1825451 0.2826391 -0.4004674 -0.12228666 -0.05059952 -0.16199815 -0.24756911
0.37117836 -0.14363576 0.31062263 0.045386385 -0.055637643 0.053998824 -0.5387597 0.2890694
-0.009283147 -0.30894342 -0.012415069 0.13910565 -0.24413331 0.18633382 -0.117740415 -0.107783884
0.08053094 0.26760814 0.07681269 0.12277865 -0.16340831 -0.10852953 -0.1494844 -0.23920831
-0.023793573 0.045077775 0.060421556 -0.056682084 -0.02344936 -0.15726551 0.12921976 -0.5330924
-0.077491075 0.016777609 0.10098552 0.08163967 0.03521604 0.022285262 0.071296655 -0.022371197
-0.048195936 -0.078266524 -0.015226856 0.028405394 0.03919891 0.12856163 0.021250794 -0.121908106
-0.025917478 0.13503115 0.22949441 0.005074273 0.030930663 -0.04294262 0.12164135 0.08358872
-0.05280671 0.15867272 -0.0067136805 -0.020275004 -0.036751885 0.09579641 0.019573852 -0.0086077
0.10925696 0.1369256 0.16602278 -0.015174158 -0.038036752 -0.040756967 -0.41418514 0.32546824
0.26458967 -0.14936785 -0.08207004 -0.08230713 -0.31947777 -0.018345833 0.15194038 -0.5081014
0.07248496 0.068528324 0.3200323 0.0839158 -0.3269598 0.18635474 -0.013315384 -0.16645686
-0.3959534 -0.14497289 0.22991002 -0.46989778 0.040194888 -0.03703776 -0.0521338 -0.1464528
-0.008372622 0.019195883 0.014312451 -0.022515208 -0.023922205 -0.013626872 -0.013055937 0.005964415
-0.009485965 0.00075000955 0.027025083 0.02158678 0.01640474 0.030724043 0.023240628 -0.011989801
0.030814372 0.018496564 0.0748988 0.0039328183 0.010157544 0.044962656 0.022411201 -0.011059736
-0.0124517465 0.006068062 0.047421563 -0.0336563 -0.008206845 -0.004346938 0.0048245452 0.009994336
-0.08261173 0.023413295 -0.2204752 0.012571592 -0.031460658 0.29166368 -0.22778796 0.02349844
0.004688957 -0.37160307 -0.3321971 0.022300439 0.072717294 -0.007555406 0.057800617 -0.086646676
-0.09558826 0.119096406 0.24359673 -0.035040073 -0.06324874 0.04739556 -0.054367017 0.13418235
-0.40472367 -0.043514278 0.0005269826 -0.3107469 -0.17444272 0.06647102 0.1847895 -0.19439137
-0.12459442 0.22448373 0.15596323 0.05724935 -0.22593053 0.02848902 -0.027658923 0.2471859
-0.023535194 0.093318574 -0.18760142 -0.05267254 -0.040281843 0.03728409 -0.20783189 -0.08531121
-0.07021331 0.3559256 0.14653726 -0.102306664 -0.1398307 0.028263418 -0.1340754 0.16504425
-0.061325755 0.24682312 0.06091746 -0.16045275 -0.076737635 0.13092387 -0.2450061 0.059912916
-0.016912809 0.02268663 0.0577218 0.20212413 -0.06192515 -0.06549638 0.24216363 0.0853904
-0.022343382 -0.24281618 -0.22301286 -0.098092094 0.021301199 0.03714271 0.041048262 -0.38824043
0.033669177 -0.10065217 0.21303982 -0.028236805 -0.1919923 0.06237373 0.1334556 -0.3883925
-0.22758378 0.05431801 0.009243896 -0.22973076 -0.21375659 -0.07299399 -0.07941222 0.024087634

context_transformer_0/ffn_layer_2/intermediate_dense/einsum/Einsum;context_transformer_0/ffn_layer_2/intermediate_dense/Relu;context_transformer_0/ffn_layer_2/intermediate_dense/add f4 [32]
00000000: db78 773d 1705 e73d 70e0 acbc 179c 0cbe
00000010: 3a66 573d 63dd cdbd 941f cfbd 9e39 efbd
00000020: 8854 183e ed60 03be f6cd 29be b820 5b3d
00000030: ba88 7f3c f4a3 77bd 25a7 323d dd1f 693d
00000040: 6f28 adbd 50c5 203b aa42 b3bc 3c07 82bd
00000050: 27ac dabc fd9d 77be 8262 853d 5f1a 0f3b
00000060: 1f0f 45bd ce92 0ebe 5a47 a23c 30e4 53be
00000070: 5a7f d1bc fd24 62be 765a 91bd 51bf 963c
0.06041799 0.11280268 -0.021103114 -0.13731419 0.052587725 -0.10051992 -0.10113445 -0.116809115
0.14875996 -0.12829943 -0.16582474 0.053498 0.015596563 -0.060459092 0.043616433 0.056915153
-0.08454978 0.002453167 -0.021882374 -0.06349036 -0.026693417 -0.24181361 0.065129295 0.0021835787
-0.048110124 -0.13923189 0.019809414 -0.20692515 -0.025573421 -0.22084422 -0.07097332 0.018401774

context_transformer_0/ffn_layer_1/norm/mul;context_transformer_0/ffn_layer_1/norm/add;context_transformer_0/ffn_layer_2/intermediate_dense/einsum/Einsum;context_transformer_0/ffn_layer_2/intermediate_dense/Relu;context_transformer_0/ffn_layer_2/intermediate_dense/add f4 [32, 32]
00000000: 8302 1abe d06b b6bd 4ae1 45bd 19b6 8bbc
00000010: 545d 9cbd 3221 f33d 23ee 59bd 9b24 393e
00000020: 2291 02bd 4776 d5bd 2826 8fbb bc72 163e
00000030: 50b9 ce3d 46e2 f1bb 7e26 af3d 21cf d9bd
00000040: dfed 9cbd 5c1d 373e f97c a53d 759d 3dbe
00000050: e73b 65be c07a 113e 3420 e7bd 854b c6bd
00000060: 3c85 34be c2a8 2f3d 1934 5d3e 9d71 ef3a
00000070: e2ec b2be e7e7 d6bd bd4c 59be f227 483d
00000080: 2337 11be 7c95 11bd b9a9 843e 449d 21be
00000090: a348 3a3c 017c aa3e 0c15 b73b 25dd 9e3d
000000a0: b5cb 21be 1c7f bc3d f427 e1bd 9cda 27be
000000b0: 7be9 fe3d 37e8 be3c 3222 82bd bf5b 1cbe
000000c0: e710 533d 02fc 553e d2ba 593e ebaf 45be
000000d0: bfb6 efbe 4a2c 453d 1585 943d 88d4 10be
000000e0: bf78 4fbe 595f ee3d ee3f bc3d 9086 4cbe
000000f0: 0890 90be cb50 9abc f614 2dbe daab 8f3c
00000100: 8760 1b3d e73b e9bd f7c7 943e 166b 973d
00000110: 8d31 d83d a999 203e 9c0a c5be e9c0 0c3e
00000120: 8a15 18bd add3 3a3d 2cbd 183e 04a4 26be
00000130: 1c65 c73c 9a64 233e 1ebd 483d c754 023d
00000140: a57b ffbc f163 9abd 99af 903c 4df9 303e
00000150: 1128 c0be 5be6 933d 05c3 ba3d 84ff 1c3e
00000160: 65d9 23be fc95 463c 1543 dabd 0b1f b63d
00000170: 03e8 02bc 2849 96ba 76ed f23c 069d 90be
00000180: ef2c 32be 2a6b b1bd 90ea e6bd 4d8d 22be
00000190: aaca 2c3d 6205 063d d0a3 b23e 8677 03be
000001a0: c143 1e3e 4927 0d3d 54e4 0bbe 0e05 38be
000001b0: e4cc 523e 69bf 48bd f79a 6ebd a8a5 ad3c
000001c0: e515 953d 39b2 0c3e c6a9 6d3d 9a42 95be
000001d0: 8994 793e d5be 52bd 4278 c2bd 79d0 133b
000001e0: 2870 133e d77a 70bb 07d5 a83d e846 acbb
000001f0: d974 5abd a21a f43c 8d3a 1ebe e349 013e
00000200: fb51 813e 5b9c 82bd c9d5 7abe 6b2a 0c3e
00000210: f037 5bbd 4f04 85bd d294 ec3c a15a 383e
00000220: 1a4b 4a3d 0a68 803d fcd9 66bd 0a9b 13be
00000230: 8506 983e 6dad 513e a9c5 913e 8a74 1cbe
00000240: c124 c6bd 36a2 63bd 8e7d 90bd 6836 c23d
00000250: e134 3ebe 3f97 91bd 3cd8 fc3d 2ed8 e13d
00000260: 5861 17bf fd2b 1dbb 40d2 cbbd e209 513d
00000270: 451c 26bd c1d9 acbd bc85 34bd 174f d13d
00000280: caf9 393d c5d1 2b3d dd54 933e 4c96 56be
00000290: 1925 68bd 504c 7e3e 207e e23e 1d02 51bd
000002a0: a5d2 3dbd d3a5 2fbe c40e 1e3e d204 3f3e
000002b0: a5d0 5cbd d35f b43e 4d12 0cbd 25ba 3bbc
000002c0: 08d0 903d a061 38be 9f3f 51ba 4ccd c63d
000002d0: 6fb1 ddbc efce ecbd 39e4 d93d 7eea 77bd
000002e0: d6d4 7abe d48f 253e 4888 173c 4308 ffbc
000002f0: 9b9b 543d 5384 73be 9b8c 00be 9553 b1bc
00000300: 02d7 763c d2aa 3d3d 9fe6 8dbd df77 d9bb
00000310: 6678 7d3d 7df8 9dbb 1f73 a8bd 8651 8a3d
00000320: 1f22 be3d 19a1 0b3e 7968 e2bd 52a7 583c
00000330: a169 dfbd 8879 9f3c 1eda bb3d a5db 31bd
00000340: 6bf2 ea3c 434f a43d c4b3 313d 9a0f 7a3d
00000350: 4f8f 92bc 40d1 b63d ffd5 11bd bd37 753d
00000360: b748 9dbd 00ea 623d 7c3c efbc 5107 40bd
00000370: 3754 ba3b 687d adbc b735 13be 50fa 22bd
00000380: 1ad8 debd 83ef d6bd bce8 2b3e 4c63 a53d
00000390: 78a2 55bb a557 61bc 786b 613d 9ac5 0f3e
000003a0: 3ff8 ad3e 1bbc 773e 5c25 42be 9247 a0be
000003b0: b8c6 5f3d ba58 8fbd 4fc3 c4bd a235 b3bc
000003c0: 02af 5dbd c3d0 b63e 29f3 75bd 3716 98be
000003d0: 29ad 1cbf 4a1f 94bd edd9 8e3c e168 c03e
000003e0: 61b8 70be 359f 20bd 02b8 98bc a4a4 b7bd
000003f0: 69f4 48be 3d2f a23d 40e4 ffbd 65e7 213e
-0.1504002 -0.08907282 -0.048310556 -0.017054604 -0.076349884 0.11871566 -0.05320562 0.1808037
-0.03187669 -0.1042295 -0.0043685623 0.14692205 0.10093939 -0.00738171 0.08552264 -0.1063521
-0.07662558 0.17882293 0.08080477 -0.18517096 -0.22386132 0.14206982 -0.11285439 -0.09682373
-0.1762895 0.04288555 0.21601905 0.0018268112 -0.34946352 -0.104934506 -0.2122068 0.04886622
-0.14181189 -0.03554295 0.25910738 -0.15782648 0.011369857 0.33297732 0.005587226 0.07757024
-0.15800364 0.09203932 -0.109939486 -0.16391987 0.124468766 0.023304088 -0.063541785 -0.15269373
0.05152979 0.20896915 0.21262673 -0.19305389 -0.46819112 0.04813794 0.07251946 -0.14143574
-0.20260905 0.1163928 0.09191881 -0.19973207 -0.28234887 -0.018837353 -0.16902527 0.017538
0.037933853 -0.113883786 0.2905881 0.07393472 0.10556326 0.15683617 -0.38484657 0.13745464
-0.037129916 0.045612026 0.14915913 -0.16273504 0.024340205 0.15956345 0.04900848 0.03181913
-0.031186888 -0.075385936 0.017661856 0.172826 -0.37530568 0.07221671 0.09119228 0.15331846
-0.16000898 0.01212072 -0.10657326 0.0889264 -0.007989886 -0.0011465894 0.029654246 -0.282448
-0.17399953 -0.08663018 -0.11275208 -0.15874214 0.042185463 0.032719977 0.34890604 -0.12838563
0.15455534 0.034461293 -0.13661319 -0.17970678 0.20585972 -0.049010668 -0.058253255 0.021197155
0.07279567 0.13739862 0.058023237 -0.29152375 0.24373068 -0.051451523 -0.094955936 0.002255468
0.14398253 -0.0036694312 0.08243757 -0.005257476 -0.05333409 0.029797856 -0.15452023 0.12625842
0.2525786 -0.06377479 -0.24495615 0.13688056 -0.053520143 -0.064949624 0.028879557 0.18003322
0.04938803 0.06269844 -0.05636023 -0.14414611 0.29692474 0.20476313 0.28471115 -0.15278831
-0.09674979 -0.05557462 -0.07055198 0.094830334 -0.18574859 -0.07108926 0.12345931 0.11027561
-0.5913291 -0.0023982518 -0.099522114 0.051034816 -0.040554304 -0.08439971 -0.04407285 0.10220163
0.045404233 0.0419481 0.28775683 -0.20955771 -0.056676004 0.24833798 0.4423685 -0.051027406
-0.046343464 -0.171531 0.1543532 0.18654183 -0.053909916 0.35229358 -0.03419714 -0.0114579545
0.07070929 -0.18005991 -0.00079821976 0.09707126 -0.027062146 -0.11562907 0.10639233 -0.060526364
-0.24495253 0.16168147 0.009248801 -0.03113187 0.05190621 -0.23780946 -0.12553637 -0.0216463
0.01506591 0.046305485 -0.06928753 -0.006636604 0.0618824 -0.004820882 -0.082250826 0.067538306
0.09283852 0.13635673 -0.11055083 0.013223486 -0.10908819 0.01946713 0.09172462 -0.04342236
0.028680047 0.080229305 0.04338433 0.061050035 -0.0178906 0.0892663 -0.035604473 0.05986761
-0.07679885 0.05539894 -0.029203646 -0.046881977 0.0056863087 -0.021177962 -0.1437596 -0.039789498
-0.10881062 -0.10494902 0.16788 0.0807558 -0.003259806 -0.013753806 0.05503413 0.14040223
0.3397846 0.2419285 -0.18959564 -0.31304604 0.054632872 -0.06999345 -0.09607565 -0.02187616
-0.05412198 0.35706148 -0.06004635 -0.2970445 -0.6120172 -0.072325304 0.0174379 0.37580016
-0.23507835 -0.03921433 -0.01864243 -0.089669496 -0.19624485 0.07919166 -0.12494707 0.15810926

context_transformer_0/ffn_layer_3/intermediate_dense/einsum/Einsum;context_transformer_0/ffn_layer_3/intermediate_dense/Relu;context_transformer_0/ffn_layer_3/intermediate_dense/add f4 [32]
00000000: 73d6 0fbd 467b 08be d8f9 4bbe 1c58 30bd
00000010: 5ab7 73be ba3a e2be 0c93 f23d 33ae 0dbd
00000020: 83f6 c8be 1800 84bd b214 0abe 5f0d 0abe
00000030: 25b2 4abe cad5 643e cb21 39be e7fa 173e
00000040: 6f26 d43d 4d34 113e 7a15 3dbe 36e5 043d
00000050: ab03 783c e8db f2bd 8058 3fbe 871c 973e
00000060: 80ee 76bd e786 bbbd 70f1 a83d 3a68 32be
00000070: b110 923e fc83 f7bd 716a 3dbe e0a7 4ebe
-0.035116624 -0.13328275 -0.19919527 -0.043052778 -0.23800412 -0.4418543 0.11844453 -0.034589957
-0.39250574 -0.064453304 -0.13484457 -0.13481663 -0.19794519 0.22347179 -0.18079297 0.14841805
0.10358893 0.14180107 -0.18465224 0.032445155 0.015137593 -0.1185835 -0.18686104 0.29513952
-0.060286045 -0.0915659 0.082491755 -0.17422572 0.2852836 -0.12085721 -0.18497635 -0.20181227
